mynn_method2.pth (torch, 586174 bytes, 10 tensors)

model.0.weight f4 [32, 3, 5, 5]
000000 0a 6b cf bd fc 78 e2 3d 54 0c 7d bd f8 3b bc 3c
       -0.10127838 0.11058232 -0.061779335 0.022977814
000010 70 9c 88 3d 68 1a fa 3c a4 03 14 bd b0 a8 63 3c
       0.06670463 0.03053017 -0.036136284 0.013895199
000020 20 62 d9 3b c8 b5 cd 3d 36 6c 00 bd e4 86 53 bd
       0.006634012 0.10044438 -0.031353198 -0.051642314
000030 31 79 d4 bd 30 49 c6 bc 06 37 b3 3d f0 5a 8c bc
       -0.10374678 -0.02420482 0.08750729 -0.017133206
000040 e0 9c 3b 3d 40 90 c2 bb 3b 17 9b bd de ba d6 bd
       0.045803905 -0.005937606 -0.0757279 -0.10484861
000050 b8 e9 a6 3d 58 8c 56 bd 02 d4 3d bd d2 f0 db bd
       0.08150047 -0.052379936 -0.046344765 -0.10739292
000060 10 31 78 3c 28 d4 40 bd b6 38 b6 3d 12 86 ca 3d
       0.015148416 -0.047077328 0.088975355 0.09888853
000070 b4 b5 b7 bd c0 b7 fa 3a fa a5 8a bd 5e 0c d6 3d
       -0.08970204 0.0019128248 -0.06769939 0.104515776
000080 be 10 43 bd a4 c3 cf bc 22 92 96 bd 90 97 40 bd
       -0.04762339 -0.025361843 -0.07352091 -0.04701954
000090 30 e1 ba 3d 0c ce e5 3d 74 3a d3 bc 80 6d 89 3a
       0.09124982 0.11220941 -0.025784709 0.0010484904
0000a0 10 4a 86 bb 50 e0 fb 3b c2 70 c0 3d 90 ab 2d bd
       -0.0040981844 0.0076866522 0.09396507 -0.042399943
0000b0 bc 83 b8 3d bc fe d5 3d 9c be b2 3d 98 35 b6 bd
       0.09009501 0.10448977 0.08727762 -0.08896941
0000c0 a4 27 8f 3d 80 20 0f 3c f0 3a eb 3c 9c 79 10 3d
       0.06989983 0.008735776 0.028714627 0.035272226
0000d0 7e db e7 3d ed db 61 bd a0 16 eb 3c 00 79 89 ba
       0.11321162 -0.05514138 0.028697312 -0.0010488331
0000e0 7c 5a 48 3d 00 d7 1c bb c2 5e 4b bd b8 7a 60 3d
       0.048914418 -0.002393186 -0.049650915 0.054804534
0000f0 e0 d9 50 3d 26 e9 d2 bd d8 e1 0c 3c 60 96 3c bd
       0.05098903 -0.10298376 0.008598767 -0.046041846
000100 74 c2 a3 bd 64 1e 14 3d 80 05 21 3c a0 90 9b bd
       -0.07996073 0.036161795 0.009827971 -0.075959444
000110 8a 1a 85 3d 58 59 b9 bd 7e 3f e4 3d f0 7b 14 3c
       0.064992025 -0.09050244 0.11144923 0.009062752
000120 bc ed ed bc 06 98 cd 3d ea 9d 2c bd ae cc 98 bd
       -0.029044025 0.10038762 -0.042142786 -0.074609146
000130 e0 70 a8 bd 51 4b d9 bd f0 54 d3 3d a8 23 b7 3c
       -0.08224654 -0.106100686 0.10318935 0.02235587
000140 34 6a b0 3d 2f 6a e5 bd 31 2a 6a bd 4a 3c b1 bd
       0.08614007 -0.112018935 -0.057169143 -0.08654077
000150 7e 34 6b bd a0 1b 51 3c 72 14 c9 3d 1c 4b 28 3d
       -0.057423107 0.012762934 0.09818353 0.041087255
000160 00 5a 13 3c c8 af 26 3d 2e f2 e0 3d 05 16 bb bd
       0.008993626 0.04069498 0.10983692 -0.09135059
000170 7c cf e6 3d b8 8c 42 3d 98 cb c2 bc 78 e3 c0 bc
       0.11270043 0.04749748 -0.023778722 -0.023545966
000180 70 db 95 bb 38 b3 c9 3c 04 47 b5 bd b0 0e 0e bd
       -0.004573278 0.024621591 -0.08851436 -0.034681976
000190 72 e4 b4 3d a0 bb 54 3d 25 fe b5 bd 48 f6 a0 bd
       0.08832635 0.051936746 -0.08886365 -0.078594744
0001a0 5c 7d 78 bd e6 db e5 3d 46 86 c7 3d 3f e2 d3 bd
       -0.060666427 0.11223583 0.097424075 -0.103458874
0001b0 16 d2 82 3d 80 55 2e ba 9c 7c b6 bc b0 8a 55 3c
       0.06387727 -0.0006650314 -0.022276215 0.013033554
0001c0 a0 fe e8 3d 3b 61 9e bd c0 ae a6 ba a0 b7 74 3c
       0.11376691 -0.07733389 -0.0012716874 0.014936358
0001d0 08 20 c2 bc 80 cd 77 3a 18 6f bc bd ea c9 c8 3d
       -0.023696914 0.0009452924 -0.09200877 0.09804137
0001e0 c0 a2 57 3b fe 4f 3e bd 1e 1e 82 3d fc c2 bd 3d
       0.0032903403 -0.046463005 0.06353401 0.09265706
0001f0 56 5a 48 bd 40 cb 22 bd b2 05 dc 3d 57 9a d9 bd
       -0.048914276 -0.039744616 0.10743274 -0.10625141
000200 34 e0 cc bc 67 c0 ca bd 70 3f b3 3b a7 9e 75 bd
       -0.025009252 -0.09899979 0.005470209 -0.059965756
000210 82 ea db 3d 14 d7 93 3d 10 58 82 3d b0 ae bf 3c
       0.10738088 0.07218757 0.06364453 0.023398727
000220 0a 47 a8 3d f8 68 eb bd 34 78 9d bd 14 be 00 3d
       0.082166746 -0.114946306 -0.076889426 0.031431273
000230 d3 94 cb bd d2 ae c0 3d 16 9a 85 bd b8 36 c8 bd
       -0.09940495 0.09408344 -0.0652353 -0.09776062
000240 10 4b 9b bb f6 ff 18 bd 00 8f ef ba 6c 5b 42 bd
       -0.0047391728 -0.03735348 -0.001827687 -0.047450468
000250 f4 aa 6b 3d fa 1d b1 3d 8c d3 88 bd dd 00 b9 bd
       0.05753608 0.08648296 -0.06680974 -0.09033368
000260 46 54 9a 3d 80 a1 1a 3d 14 87 21 3d 2a 8b 2c bd
       0.07535605 0.037751675 0.03943546 -0.042124905
000270 75 9c d1 bd ac af 75 bd 40 bd b4 bc 18 08 c4 bd
       -0.1023492 -0.059981987 -0.022062898 -0.09571856
000280 18 c8 78 3d 70 7a d9 3d 0c fe 47 3d 77 87 85 bd
       0.0607377 0.10619056 0.048826262 -0.065199785
000290 90 05 a8 3c 1a 8c d8 3d 98 d6 54 bd 28 16 4d 3d
       0.020510465 0.10573597 -0.051962465 0.050069958
0002a0 24 45 6f 3d 39 27 d7 bd e6 a6 4d bd c0 cf 5f 3c
       0.058415547 -0.10505528 -0.050207995 0.013660371
0002b0 f0 c9 95 bd 1c d7 9a bd 70 b8 ce 3c 08 06 3f bc
       -0.07313907 -0.0756056 0.025234431 -0.011659153
0002c0 04 cb 36 3d c4 32 d5 3d 8e 14 50 bd d0 98 bb 3b
       0.044627205 0.104100734 -0.050800852 0.005725004
0002d0 90 23 3a bd d0 ee 06 bc 04 2e af bd e0 0a d1 bd
       -0.04544407 -0.008235648 -0.08553699 -0.10207152
0002e0 3d 5c bb bd c0 fb 70 3d 8a 7f 16 bd 08 b2 85 3d
       -0.091484524 0.058833838 -0.036742724 0.065280974
0002f0 40 da b8 3c cc 38 8c 3d 7a 0b ce 3d e0 1f 70 bc
       0.022565007 0.06846771 0.10060783 -0.014656037
000300 2c 70 e8 3d be 4f de 3d f8 3a 89 3d 84 b7 97 bd
       0.1134952 0.10855053 0.067007005 -0.0740805
000310 10 d1 19 bd 8c 48 14 3d f8 85 a8 3d 84 65 6e 3d
       -0.037552893 0.036202 0.082286775 0.05820228
000320 ee 0c 90 3d c3 80 e6 bd e7 db e4 bd a6 18 a7 3d
       0.07033716 -0.11255028 -0.111747555 0.08158998
000330 70 3b 6a 3c 66 d7 a4 3d 0a 54 8b 3d 04 eb 5b 3d
       0.014296398 0.080488965 0.068031386 0.053690925
000340 20 f5 a8 3d a4 15 3c 3d ce eb 3e bd 64 27 42 bd
       0.08249879 0.045919076 -0.0466116 -0.047400847
000350 0e 35 8c bd dd 23 cc bd 3f 7a c8 bd 6e 91 96 3d
       -0.06846057 -0.09967778 -0.097889416 0.07351957
000360 d2 66 e8 3d 26 be df 3d 00 d4 42 39 d8 d7 18 bc
       0.113477364 0.1092494 0.00018580258 -0.009328805
000370 a8 df 1e 3d 50 37 ce bd 6c 5b bc bd 5c 9c c1 3d
       0.038787514 -0.10069144 -0.09197125 0.09453651
000380 0e a7 e4 bd 03 f9 c0 bd cc 49 d1 3d a0 c2 d9 bb
       -0.11164676 -0.09422495 0.10219154 -0.0066455156
000390 4c 6a 10 3d c0 ed bc bc ee 08 85 bd 4c 1d c8 3d
       0.035257623 -0.023062587 -0.06495844 0.09771213
0003a0 20 58 fb 3c 40 40 78 bd 2c 33 bc 3d fc 3b 85 3d
       0.03068167 -0.06060815 0.09189448 0.06505582
0003b0 3f 65 8e bd 26 e6 96 3d ca a2 a3 3d fc 2b 46 bd
       -0.06952905 0.07368116 0.07990034 -0.04838179
0003c0 bc 0e 9c 3d 94 eb 0f bd 44 d5 3a 3d 30 31 47 3d
       0.07619998 -0.035136774 0.045613542 0.048630893
0003d0 98 11 e9 3c 84 7c 89 bc 36 c9 c9 bd 4f a2 d8 bd
       0.028450772 -0.016783006 -0.09852831 -0.10577833
0003e0 78 a8 de bc 02 5e 9d 3d e4 e3 9e bc 28 35 61 bc
       -0.027179942 0.07683946 -0.019395776 -0.013745584
0003f0 44 df 95 bd 0c 46 89 3d 70 7c 1b 3d 7c 3d 38 3d
       -0.07317975 0.067028135 0.03796047 0.04498051

model.0.bias f4 [32]
000000 78 8a a5 bd 28 73 0b bd bc ec 26 bd a4 83 94 bc
       -0.080830514 -0.03404537 -0.04075311 -0.018129177
000010 b0 49 90 3c 93 92 ea bd 20 b5 62 bb 72 1c bb 3d
       0.017613262 -0.11453738 -0.0034592822 0.09136285
000020 00 c5 6f bc 40 4d 0a bb 18 25 c5 3d 0a 88 bf bd
       -0.014634371 -0.0021103173 0.09626216 -0.09352119
000030 f0 3c e6 3c a4 cb b0 bc 10 07 c0 3c 1c 89 9a bd
       0.02810523 -0.021581478 0.023440868 -0.07545683
000040 60 b2 65 3b 20 0b 50 3d 7c 92 11 bd fc 3a 25 3d
       0.0035048947 0.05079186 -0.03554009 0.040339455
000050 38 46 9b bd f0 d5 c9 bb c4 e3 b1 3d 63 15 b7 bd
       -0.075817525 -0.0061595365 0.08686021 -0.08939626
000060 5f fe 73 bd 73 52 c4 bd 8a f0 10 bd dc 19 27 bd
       -0.05956876 -0.095860384 -0.035385646 -0.040796146
000070 7a 96 d3 bd a0 2b 7a bb 44 e3 40 bd 44 61 ec bc
       -0.103314355 -0.0038172975 -0.047091737 -0.028854974

model.2.weight f4 [32, 32, 5, 5]
000000 c5 46 0a 3d 57 1b 10 3d a4 eb 0f bc fe d1 85 3c
       0.033758897 0.035182323 -0.008784208 0.016335484
000010 c0 36 02 bd 20 0c a2 bb 46 41 b7 3c c8 50 a3 3c
       -0.031790495 -0.004945293 0.022369992 0.01993598
000020 48 33 8c 3b a8 df 91 bc 42 49 8c bc bf ce fd bc
       0.004278574 -0.017806843 -0.017124776 -0.030982373
000030 a4 da 61 3c 30 46 17 3b 32 97 a8 3c c4 aa 56 bc
       0.013785038 0.0023082606 0.020579908 -0.013102237
000040 02 1c 0e bd cb 28 06 bd f0 90 1d 3c 7c a5 97 3c
       -0.03469468 -0.032753747 0.009617075 0.018511526
000050 47 ee a0 bc 58 75 04 bd 29 cc 0f 3d 9a 53 f8 3c
       -0.01964487 -0.03233847 0.03510681 0.030313302
000060 47 d7 99 bc 74 f5 8d bc 78 a0 c7 3b 20 aa 9d 3b
       -0.01877941 -0.017328955 0.0060921274 0.0048115402
000070 f0 76 5a 3b b4 90 34 3c f4 26 ac bc c8 8f 76 bc
       0.0033335052 0.011020828 -0.021014668 -0.015048929
000080 c8 65 15 bc 10 22 98 bc 98 6d bd bb c9 dd d8 bc
       -0.009118505 -0.01857093 -0.005780887 -0.026472943
000090 c8 24 c5 3b b0 8a 12 3c 0a 39 60 bc f3 d4 88 bc
       0.0060163476 0.0089441985 -0.013685474 -0.016703105
0000a0 28 bd 38 bc 00 3b 39 b9 7a b5 f5 3c 20 02 b9 3a
       -0.011275567 -0.00017664954 0.029993761 0.0014115013
0000b0 b0 8c 7e bb 01 1f 91 bc 35 c7 08 3d 3f 2c 98 bc
       -0.003884118 -0.01771498 0.033393104 -0.018575786
0000c0 46 28 f8 3c e2 e4 0e bc b6 9a 0c bd 28 63 ea bc
       0.030292641 -0.008721562 -0.03432723 -0.028611735
0000d0 37 dd 0e 3d 60 2a cd bb 00 a1 12 3c ee 27 70 bc
       0.034878936 -0.006261155 0.008949518 -0.0146579575
0000e0 06 c5 a2 3c da da 4f bc ae ac dc 3c 44 28 d3 3c
       0.019869339 -0.012686456 0.026937809 0.025776036
0000f0 49 d8 0d 3d 80 bd 57 3a 1c e5 22 3c 58 4d 7e 3c
       0.034630094 0.0008229837 0.009942319 0.01552137
000100 86 d9 67 bc 86 cc 13 bc 00 a8 f7 39 1a 55 37 bc
       -0.014150983 -0.00902093 0.0004723668 -0.011189723
000110 78 91 c0 bb 6a 6e ae bc 20 86 f1 3a 54 b2 1c bc
       -0.005876716 -0.021292884 0.0018426813 -0.009564001
000120 2a 07 e3 3c 94 9f 33 3c a0 39 a1 ba b2 57 eb 3c
       0.027713377 0.010963339 -0.0012300499 0.02872834
000130 ae 94 f9 3c a0 b0 38 bc 76 7a 5d bc 4c ad 01 3c
       0.030466404 -0.011272579 -0.0135179665 0.007914852
000140 b4 e6 f4 bb 12 97 e6 3c 00 90 05 3a 94 4c 27 3c
       -0.007473791 0.028148208 0.0005095005 0.010211129
000150 00 63 3d b9 20 4c b2 bc cc 29 39 3c 34 bc 1d bc
       -0.00018061325 -0.021764815 0.011301469 -0.009627391
000160 a8 ad d7 3c c8 a3 0c 3c c0 25 06 ba 54 4d d9 bc
       0.026327923 0.00858397 -0.00051173195 -0.02652613
000170 9a 27 45 bc 6e 5c e4 3c 88 5c 68 bc c6 6e ca 3c
       -0.0120333675 0.027876105 -0.014182217 0.024711024
000180 06 fd a0 3c da 44 cf bc 10 cc 0f 3b d8 60 03 bd
       0.019651901 -0.025301386 0.00219417 -0.03207478
000190 44 0b 9f 3c b0 bb 41 bb 00 77 59 39 38 c5 9c bc
       0.019414552 -0.0029561333 0.00020739064 -0.01913701
0001a0 d4 f3 82 bc 32 9b fd bc f4 97 d4 bc ac 14 b4 3c
       -0.015985407 -0.030957792 -0.025951363 0.021982513
0001b0 e5 34 f5 bc e8 ec 3e bc 46 37 d5 3c 6e 34 f9 3c
       -0.029932449 -0.011653163 0.026027333 0.030420508
0001c0 38 ae dd bc 40 12 50 ba 7d 3f 06 3d 1c f7 e9 bc
       -0.027060613 -0.000793729 0.03277539 -0.028560214
0001d0 fb 93 a1 bc 66 8c e9 3c 60 d1 c6 3c 26 6f e7 3c
       -0.019723883 0.02850933 0.02426976 0.028251242
0001e0 f4 46 dd 3c 66 f2 ef 3c 11 c3 03 3d d9 79 b2 bc
       0.027011372 0.02929039 0.03216845 -0.021786617
0001f0 ec f3 ad 3c a6 ae be 3c c0 84 d6 3b 08 fa be 3b
       0.021234475 0.023276638 0.0065465868 0.005828146
000200 46 ef ef 3c ae 39 a4 3c 0a c4 43 bc 78 66 41 bc
       0.0292889 0.020047035 -0.011948595 -0.011804216
000210 b6 6f 92 3c 02 7c 94 3c c6 dd 0e bc 8f 7d e0 bc
       0.017875534 0.018125538 -0.008719867 -0.027403621
000220 64 f8 c0 3c c0 c9 8f 3c 1a 6b f6 bc 4c 5e 30 3c
       0.023555942 0.017552257 -0.030080367 0.01076467
000230 1e ea e8 3c f8 61 cf 3b 63 91 e9 bc 18 5d a9 bc
       0.028431948 0.0063288175 -0.028511709 -0.020674273
000240 2a 0b 99 bc 24 f6 b4 bb a2 a7 f6 3c 8c d9 0a 3c
       -0.018682081 -0.0055225063 0.03010923 0.008474719
000250 71 27 0d 3d 6f 03 0d 3d e3 6e 05 bd 89 91 06 3d
       0.034461442 0.034427103 -0.032576453 0.032853637
000260 d0 6b a3 3b 94 16 21 bc 5e af c6 bc 6e 41 a0 3c
       0.0049872175 -0.009832043 -0.024253543 0.01956245
000270 88 cb 20 3c 43 72 04 3d 08 0a f2 bc 0b 88 03 3d
       0.009814151 0.03233553 -0.029545799 0.032112163
000280 5e aa 66 bc f4 60 01 bd 98 58 9a bb 52 66 eb bc
       -0.014078705 -0.031586602 -0.004710268 -0.028735314
000290 3c 5b d4 3c b0 4f 95 bb 40 ff db bb 51 ca b2 bc
       0.02592241 -0.0045566186 -0.006713778 -0.021824988
0002a0 ae 3d 0b bd 02 a3 96 bc a0 ac bb 3b 9e ce 90 3c
       -0.03399437 -0.018388275 0.0057273656 0.017676648
0002b0 9c e9 55 3c 7e 13 ea 3c 62 a2 20 bc 24 cc 2e 3c
       0.013056185 0.028573748 -0.00980434 0.010668788
0002c0 08 b5 64 bc 17 d8 99 bc fc b3 7f 3c 60 8a 32 bb
       -0.013959177 -0.018779797 0.015606876 -0.0027243122
0002d0 f0 1e d9 bb 82 cd 52 bc 42 d8 d1 3c 08 2f 86 3c
       -0.0066260025 -0.01286638 0.025615815 0.016379848
0002e0 80 79 ff b9 26 a0 8e bc 3a e2 d3 bc 00 e6 eb 38
       -0.00048727915 -0.01741035 -0.02586471 0.00011248514
0002f0 c8 1a 8c 3c 54 01 d4 3c 50 23 2d 3c 00 5e 00 3b
       0.017102614 0.02587954 0.010567501 0.0019587278
000300 00 3f 64 3c c8 40 bf bc 47 35 b0 bc f4 df ad 3c
       0.013931036 -0.02334632 -0.02150978 0.021224953
000310 83 5c 04 3d 78 d2 4a 3c 3e 10 7b bc 15 7f 06 3d
       0.03231479 0.012379281 -0.015323697 0.03283604
000320 be a9 56 bc f4 91 c9 3c e3 60 dd bc 64 fc c1 bb
       -0.013101993 0.024605729 -0.027023738 -0.00591998
000330 9c b2 2e 3c 80 0b 11 3b f8 79 2b 3c 10 a4 a6 3c
       0.010662701 0.0022132099 0.010466091 0.020341903
000340 82 d6 c4 3c 18 15 a6 3c 70 c0 a4 3c 0d ac 0d 3d
       0.024028067 0.02027373 0.020111293 0.03458791
000350 d8 c3 3e 3c 94 e0 ba 3c 80 82 c0 3c 60 1a 9f 3b
       0.0116433725 0.022812165 0.023499727 0.004855439
000360 9d 63 06 3d e2 43 a5 bc cc bd 57 bc 4c 99 6b bc
       0.032809842 -0.02017397 -0.01316781 -0.014379811
000370 f0 77 04 bc 16 ee ee 3c ec 22 68 bc 56 af 0d bd
       -0.008085236 0.029166263 -0.014168482 -0.03459104
000380 76 19 08 bd 96 c8 6e bc 1f c4 06 3d 90 95 f1 3b
       -0.033227406 -0.014574191 0.03290188 0.0073725656
000390 ce 7c 37 bc 00 61 89 ba a2 b9 65 bc d8 c6 f8 3b
       -0.011199189 -0.0010481179 -0.014021309 0.0075920634
0003a0 48 c9 89 bc 60 93 c5 3a 28 98 e7 bc a4 69 65 3c
       -0.016819611 0.0015073828 -0.028270796 0.0140022375
0003b0 ea 66 f8 3c 54 66 06 3c 12 bb 5b bc 98 3c a8 3c
       0.03032251 0.008203108 -0.0134113 0.020536706
0003c0 c0 1a 6b ba 3e ce 76 bc 10 af 32 3c c8 57 36 bc
       -0.00089685246 -0.01506382 0.010905996 -0.011129327
0003d0 a4 75 bb bb 52 0a d4 bc 18 79 0a bd 40 98 c5 3a
       -0.005720811 -0.025883827 -0.03380689 0.0015075281
0003e0 34 a4 45 3c b2 8c c9 3c e6 d4 f0 bc f8 37 dd 3b
       0.012063075 0.024603222 -0.029398393 0.0067510568
0003f0 40 4d ed ba 70 bc 63 bb b9 46 01 3d 30 be 8c 3c
       -0.0018104687 -0.0034749769 0.031561587 0.017180532

model.2.bias f4 [32]
000000 e6 6a 4b bc 50 1f 0e bc d1 ad ee bc da 23 7b bc
       -0.012415623 -0.008674458 -0.029135616 -0.015328372
000010 f0 d3 49 3c 30 7b bb 3c cc c9 de bc 30 ff a1 3b
       0.012318596 0.022885889 -0.027195834 0.004943751
000020 0a ac 70 bc 4c ad 7b 3c 90 a4 87 3c aa f1 e5 3c
       -0.014689455 0.015361141 0.016557962 0.028069336
000030 b4 d4 9d 3c 74 e3 c3 3c 8c c4 b6 3c 8c 05 b3 3c
       0.019266464 0.023912169 0.022310518 0.02185323
000040 c0 45 e1 bc e4 18 0b 3c 39 95 0f 3d b0 3f 1a bc
       -0.02749908 0.008489821 0.03505442 -0.009414598
000050 ee 1d 52 bc 32 ad a2 bc 80 41 92 b9 9c ae 5e 3c
       -0.012824519 -0.019857977 -0.0002789609 0.013591435
000060 9a 6c ac bc 10 72 fa bc 00 02 bf ba 00 b0 2a 39
       -0.021047879 -0.030571967 -0.001457274 0.00016278028
000070 f2 84 e4 3c 10 4e e5 bc 91 49 0f 3d ff 6b 0f bd
       0.027895425 -0.027991325 0.034982268 -0.035015102

model.4.weight f4 [64, 32, 5, 5]
000000 72 9e b0 3c 80 00 4a bb 80 3c a3 bc 12 93 cd 3c
       0.021559928 -0.0030823052 -0.01992631 0.025094543
000010 2f cd fb bc 00 eb 2c 39 17 c6 0a bd 20 36 9e bb
       -0.030737488 0.00016490743 -0.03388032 -0.0048282295
000020 a8 1c 3c 3c aa 25 ac 3c 99 01 08 3d 0a f1 14 bc
       0.011481442 0.021014053 0.03320465 -0.009090671
000030 c0 e5 87 3b 32 7c ba bc 2e 6c aa bc 4d 6d 10 3d
       0.0041472614 -0.022764299 -0.020803537 0.035260487
000040 72 0b 90 bc 50 b2 8c 3b b8 b6 c9 bc e0 2d c2 bc
       -0.017583583 0.0042937174 -0.02462326 -0.023703516
000050 b4 ec 7d bc f0 5e e5 3b c3 69 06 bd b6 79 ee bc
       -0.015498329 0.006999843 -0.032815706 -0.02911077
000060 5e 1b f9 bc e4 c2 d5 3c cd 9e 04 3d d2 a7 98 3c
       -0.030408558 0.026093908 0.032378007 0.01863471
000070 56 c6 95 3c 6e 84 dd 3c 4a 3a b9 3c f6 e7 f7 3c
       0.01828305 0.027040686 0.022610802 0.030261975
000080 8c 88 a7 3c f8 72 81 3c 5e 98 21 bc 0e 10 dc bc
       0.020450853 0.015801892 -0.009862987 -0.026863124
000090 91 12 04 3d 24 74 b7 bc 18 65 88 3c 83 be 08 3d
       0.03224427 -0.022394247 0.016649768 0.03338481
0000a0 92 bc a8 bc 0a 40 f7 bc 40 84 16 ba 20 de d1 bc
       -0.02059773 -0.030181903 -0.00057417527 -0.025618613
0000b0 b8 71 85 bc 42 64 01 bc 04 d6 c5 3c b2 4a c5 3c
       -0.016289577 -0.0078974385 0.024149902 0.024083469
0000c0 6c 53 b9 bc 47 3c d3 bc 89 60 0b 3d 60 64 53 3c
       -0.022622786 -0.025785578 0.03402761 0.012902349
0000d0 8e ec 60 bc 3a 4c c2 bc 61 58 02 3d 80 05 e4 3a
       -0.013728274 -0.023717988 0.031822566 0.0017396659
0000e0 20 65 e4 ba 86 91 a3 bc 98 81 77 bc a3 d0 0d 3d
       -0.0017425157 -0.019966852 -0.015106581 0.0346228
0000f0 fe 1b e9 3c ea 96 e2 3c b8 ae d4 3b 02 42 df 3c
       0.02845573 0.027659852 0.0064905547 0.027253155
000100 15 7a 81 bc a0 43 6b bb 60 d9 5b bc 28 a1 2e 3c
       -0.015805284 -0.0035898462 -0.013418525 0.01065854
000110 a5 c2 0d bd ad b6 df bc 20 70 10 bd ec a8 15 bc
       -0.034609456 -0.027308786 -0.03526318 -0.009134512
000120 14 37 4f 3c 42 2c e2 bc 6b 98 0d 3d 50 07 20 bb
       0.012647409 -0.027608994 0.034569185 -0.002441842
000130 33 27 04 3d e8 13 da 3b 57 45 01 3d 1c 4f 26 3c
       0.032263946 0.006655205 0.03156027 0.010150697
000140 c6 be da 3c 30 a2 10 3b cc 2c 22 3c 8c ea 46 3c
       0.026702296 0.0022069328 0.009898376 0.012140881
000150 58 b6 36 3c 94 dd 18 3c 40 f8 6a ba d8 2c fd 3b
       0.011151873 0.009330172 -0.0008963384 0.007726293
000160 80 6a ee 3b 40 0d e3 bc c6 28 6d bc 90 f9 3a 3c
       0.0072758794 -0.027716279 -0.014475053 0.011412039
000170 7e e7 ea bc 30 20 7d bb 94 1e 20 3c 48 2b f8 bb
       -0.028674837 -0.0038623922 0.009772915 -0.007573519
000180 1c 97 53 3c 64 fc 4c bc 73 f5 92 bc 98 da 0e bc
       0.012914445 -0.0125113465 -0.017939305 -0.008719109
000190 b2 db ff 3c 68 56 2c 3c 82 9f d9 bc e5 66 04 3d
       0.031232689 0.010518648 -0.026565317 0.03232469
0001a0 3c d3 39 3c d0 c2 24 3c 94 d4 f6 bc da 8a e1 bc
       0.011341866 0.010056213 -0.030130662 -0.02753203
0001b0 50 73 09 3b f7 aa 03 bd 2c 80 8f bb 4c 02 40 3c
       0.0020973273 -0.032145467 -0.004379293 0.011719298
0001c0 00 63 7e 3c 7d a8 ff bc 04 59 ae 3c 87 47 94 bc
       0.015526533 -0.031208271 0.02128268 -0.018100513
0001d0 88 89 00 bc 9c d4 f4 bb 68 34 ba 3c 7e 83 04 bd
       -0.00784529 -0.007471634 0.022730067 -0.032351963
0001e0 fe 64 a2 bc 80 08 3e 3a 6c 1d 06 bd 7b 56 0f bd
       -0.019823547 0.00072491914 -0.032742903 -0.034994584
0001f0 d0 bf 2e bb 86 a1 10 bd 02 b8 65 bc 4c 52 55 3c
       -0.0026664622 -0.03531029 -0.014020922 0.013020109
000200 2a 0c d5 bc e0 31 b3 3b 60 24 bd bb 44 77 71 3c
       -0.026006777 0.005468592 -0.0057721585 0.014737908
000210 86 91 da bc cc e0 3a bc 4c 83 d3 bc cd 34 d1 bc
       -0.02668072 -0.011406135 -0.025819443 -0.025537873
000220 fc 39 69 3c 7e 9b 14 bc 60 29 de 3c 2b 8b 05 3d
       0.014235016 -0.009070275 0.027119339 0.032603424
000230 d6 d5 8f 3c 10 95 44 3c 8d 1f 0a 3d c2 63 07 bd
       0.01755802 0.01199843 0.033721495 -0.03305412
000240 1e 9a f1 3c 20 1e 6c 3b ac 05 e3 bb 66 fe f1 bc
       0.029492434 0.0036028698 -0.0069281664 -0.029540252
000250 cc 74 8d bc 98 db f3 3b db b9 05 bd bc a4 86 bb
       -0.017267607 0.007441949 -0.03264795 -0.0041089933
000260 4c 5f ae 3c 03 03 fd bc 80 4c 2b 3b b5 e9 83 bc
       0.021285675 -0.030885225 0.0026138127 -0.016102651
000270 c2 e8 1e bc 92 d2 b9 3c db 4a 09 bd ca 8e 8f 3c
       -0.0096990485 0.022683416 -0.033518653 0.017524142
000280 2d 6e 0c 3d 3a 52 19 bc 22 65 bb bc 49 a1 0c 3d
       0.03428476 -0.009357983 -0.022875372 0.0343335
000290 9d a4 08 bd 11 16 a7 bc 18 00 b0 3c a4 a9 08 3c
       -0.033360112 -0.020396264 0.02148442 0.008341227
0002a0 98 2f ac bb 78 0e 3a bc 2a e2 b4 3c 62 2c 1a bc
       -0.005254697 -0.011355989 0.0220805 -0.009409996
0002b0 20 c4 b6 bc 31 e5 a2 bc 46 31 bc bc ae f3 d9 bc
       -0.022310317 -0.019884678 -0.022972714 -0.026605453
0002c0 74 12 77 3c 59 af 96 bc df 03 82 bc a3 ed 06 3d
       0.015080083 -0.01839416 -0.015870987 0.03294147
0002d0 ba 22 22 bc 3e ac 10 bd aa 10 ea 3c e1 e9 9e bc
       -0.009895975 -0.035320513 0.0285724 -0.019398632
0002e0 c8 fb ac 3b d0 a1 16 bb 20 ea f6 bc b8 11 19 3c
       0.005279038 -0.0022984631 -0.030140936 0.009342603
0002f0 5e 00 72 bc b6 6c 57 bc 79 23 ff bc 95 42 f0 bc
       -0.014770595 -0.013148477 -0.031144844 -0.029328624
000300 44 58 e4 bb b2 61 de 3c 16 f9 ec 3c dc 86 06 3c
       -0.00696853 0.027146194 0.028927367 0.008210864
000310 06 e1 be 3c 00 20 d1 3a cf d9 0f 3d 50 ad f3 bb
       0.023300659 0.0015954971 0.035119828 -0.007436432
000320 7e 0d d5 bc d8 4f dd bb 1d f4 03 3d da 7e fc bc
       -0.02600741 -0.006753903 0.032215226 -0.030822206
000330 63 ef 05 3d 22 f6 87 3c 2a f6 9e bc 78 ed 43 3c
       0.032699 0.016596857 -0.01940449 0.011958472
000340 dc 55 22 3c 8a 50 f4 3c fa b4 13 bc 20 4e 6f 3c
       0.009908166 0.02982356 -0.009015316 0.014606029
000350 64 70 c8 bc f8 b0 ad 3c 26 e1 d9 3c 80 2c 12 ba
       -0.024467655 0.02120255 0.026596617 -0.0005576089
000360 f2 9e f1 bc bc b6 c0 bb c0 46 6a bb 39 52 88 bc
       -0.029494736 -0.0058811586 -0.0035747737 -0.01664077
000370 8e 5c c9 3c ad db 02 3d dc 8f 5f 3c 96 0c 8e bc
       0.024580266 0.03194778 0.013645139 -0.017339986
000380 0d eb 03 3d 1c 28 de 3c d0 eb 04 bd 78 5c d0 3c
       0.032206584 0.027118735 -0.03245145 0.025434718
000390 24 0f d5 bb 92 72 e9 3c 8e 85 0b bc 5c d0 01 bd
       -0.006502049 0.028497014 -0.008515729 -0.031692848
0003a0 bc 2a ab 3c 37 33 0f bd 77 cd 91 bc 6a 37 9f 3c
       0.0208944 -0.03496095 -0.017798169 0.019435603
0003b0 5b 56 a1 bc fa 0f 29 bc 7c c3 a5 bc 36 82 ba 3c
       -0.019694498 -0.0103187505 -0.020234816 0.022767168
0003c0 10 6e 14 3b 56 7f e9 bc 7c 7e d5 bb 88 e9 8f 3c
       0.002264861 -0.028503101 -0.0065153223 0.017567411
0003d0 1e 3a 64 bc c1 4f 0d bd c1 eb 04 3d 2b b4 f3 bc
       -0.013929872 -0.034499887 0.032451395 -0.029748997
0003e0 60 cb ad bc ce b6 39 bc 4c 27 00 bd f8 bb 49 bc
       -0.02121514 -0.011335088 -0.031287476 -0.012312882
0003f0 10 7b b3 bb 68 13 29 3c c6 74 93 bc e5 48 08 3d
       -0.0054773167 0.010319568 -0.018000018 0.033272643

model.4.bias f4 [64]
000000 bc 84 be bb 34 0e bd 3c 96 20 e2 3c 14 77 e0 bb
       -0.005814163 0.023078062 0.027603429 -0.0068501327
000010 d6 9b d2 3c 42 16 0f bc 56 25 0d bc e7 99 01 3d
       0.025709074 -0.008733334 -0.008614859 0.031640913
000020 8a 41 ad 3c bc 6e ee bc 4e 82 16 bc e3 40 0d 3d
       0.021149416 -0.029105537 -0.0091863405 0.03448571
000030 cc f8 77 3c 55 76 0e 3d af 22 82 bc 5e 7d 37 bc
       0.015135001 0.03478082 -0.015885679 -0.011199323
000040 52 24 fa 3c 60 26 e3 3b 4c 33 4a bc a0 05 51 3c
       0.030534897 0.006932065 -0.012341332 0.012757689
000050 b4 03 09 bd ec ba 4b 3c 80 1e 4e ba c6 32 9b 3c
       -0.033450797 0.012434702 -0.0007862821 0.01894511
000060 d6 44 4b bc da 33 9e bc 86 39 40 bc e0 ea a1 ba
       -0.0124065485 -0.019311834 -0.011732465 -0.0012353323
000070 72 c1 db bc 8a 3d b0 3c e0 14 33 3c 6e 56 c7 bc
       -0.02682564 0.02151372 0.01093027 -0.024333205
000080 16 10 1a bc 39 bf 05 bd 02 5e 97 3c 12 e3 e4 bc
       -0.009403249 -0.032653067 0.018477444 -0.027940307
000090 00 6a 14 ba 6e 2a f6 3c b6 94 5f bc 20 0e 3e bb
       -0.0005661547 0.030049529 -0.013646295 -0.0029000118
0000a0 f2 d0 a2 3c 4c a0 2b bc 1e 5f 4c bc 98 3a 15 3c
       0.019875024 -0.0104752295 -0.01247385 0.009108208
0000b0 0e bc f0 3c 76 12 01 bd 45 4d 8c bc d4 1c 70 bc
       0.029386546 -0.031511746 -0.017126689 -0.014655311
0000c0 6c f4 b5 3c 83 9e 87 bc c0 e0 b6 ba f0 02 65 bb
       0.022211276 -0.016555076 -0.0013952479 -0.0034944378
0000d0 76 e1 e9 3c 70 21 48 3b 54 3a c1 3c ee 4c a5 3c
       0.028549891 0.0030537508 0.023587383 0.020178284
0000e0 00 81 90 39 68 c7 c2 bc 8a 49 3b bc 93 53 0d 3d
       0.00027561933 -0.023776725 -0.011431107 0.03450353
0000f0 72 66 b2 3c d2 24 9c 3c de 40 f5 3c 40 bc 48 3a
       0.021777365 0.019060526 0.029938158 0.0007657446

model.7.weight f4 [64, 1024]
000000 40 47 41 3b ee 94 ab 3c ea 6f f7 3c aa a4 ed 3c
       0.0029491931 0.020945039 0.030204732 0.029009182
000010 86 ed 8f bc 7a df b4 bc c8 bc 9c 3c 58 e7 ca bc
       -0.017569315 -0.022079218 0.019132987 -0.024768516
000020 1a ac d4 bc 04 1a 6f bc 38 37 ab bb 80 c8 c7 ba
       -0.02596097 -0.014593605 -0.0052250884 -0.0015242249
000030 b8 a4 0a bc 7a 70 eb 3c 10 ab f0 bc 46 64 80 bc
       -0.008462124 0.028740156 -0.029378444 -0.015672814
000040 48 93 01 3c 32 74 8e bc 70 c6 8a 3c fc 9f 0d 3c
       0.00790865 -0.01738939 0.016940325 0.0086441
000050 68 91 d0 3b a0 01 2d 3b 78 6a c6 bc d4 d0 c0 bc
       0.00636499 0.0026398674 -0.02422069 -0.023537077
000060 aa d3 fe bc 74 df 1d 3c 0a 7a f7 3c 64 b1 b6 bc
       -0.031106789 0.009635795 0.03020956 -0.022301383
000070 ce d0 a1 3c 82 23 8f 3c e4 9e de bc 50 c9 77 bc
       0.019752886 0.017472986 -0.027175374 -0.01512368
000080 74 59 b9 3c e0 ce e0 3a 90 ef 73 3c 18 1e a1 bc
       0.022625662 0.0017151497 0.014888659 -0.01966767
000090 e8 f5 9b bb ac 07 ae 3c c8 75 fb 3b 60 91 d5 ba
       -0.004759539 0.021243893 0.0076739527 -0.0016293935
0000a0 04 59 f3 bc 80 ac fa bb da a0 ae bc f8 5e 64 bc
       -0.029705532 -0.007649958 -0.021316934 -0.013938658
0000b0 ba 5c d9 3c 84 0a 51 bc 80 00 2e 3b 60 03 a2 3c
       0.026533473 -0.012758855 0.002655059 0.019777
0000c0 cc 8b 17 3c 0a 11 f9 3c ca 23 92 3c 50 2e 10 bb
       0.009249639 0.030403633 0.017839331 -0.002200026
0000d0 58 f1 8b bc c8 61 d2 bc 40 c2 df 3b aa 52 f2 3c
       -0.017082855 -0.025681391 0.0068285763 0.029580433
0000e0 a0 4d ef 3b f2 cc b5 bc 4c dc c2 bc 44 8a 29 3c
       0.007302955 -0.022192452 -0.023786686 0.0103479065
0000f0 10 ba dd bb e8 eb a1 3c 10 8e 21 bb 12 0b ef 3c
       -0.006766565 0.01976581 -0.0024651326 0.029180083
000100 96 70 a4 bc 2c 4a 84 bc 2c 77 0c 3c d0 53 4e bc
       -0.020073216 -0.01614865 0.008573335 -0.012593225
000110 8c 5f 25 bc 90 7f a4 3b b0 c1 c7 3b ac ed 42 3c
       -0.010093581 0.0050200894 0.0060960874 0.011897486
000120 04 27 2c 3c d4 73 bd bc 30 44 5d bc 68 a4 54 3c
       0.010507349 -0.02312652 -0.013505027 0.012978651
000130 bc 25 02 bc 34 c1 7e 3c a0 63 8f bc 8c 28 02 bc
       -0.007943567 0.015548993 -0.01750356 -0.007944237
000140 5e 17 c0 bc 2c e1 8b 3c 10 74 9b bc d4 c0 87 3c
       -0.023448642 0.017075144 -0.018976241 0.01657144
000150 c4 4c 2a bc 50 5e 23 3c b0 e3 2e bb f2 3a a5 3c
       -0.010394279 0.009971216 -0.0026686005 0.020169709
000160 3c e1 28 3c 60 32 45 bc 80 4e 0b bb 88 aa 02 bc
       0.010307606 -0.012035936 -0.0021256506 -0.007975228
000170 48 9b e3 bc 50 bb 06 3c fc 70 eb 3c 68 77 98 3c
       -0.027784005 0.00822337 0.028740399 0.018611625
000180 b8 3b 3b bc 14 e3 a4 bc d4 99 53 bc a0 b5 22 bc
       -0.011427812 -0.02012781 -0.012915093 -0.009930998
000190 fa 19 a8 3c 76 7c d9 bc e2 bd 8b bc 2c 1e 1b 3c
       0.0205202 -0.026548605 -0.017058317 0.009467643
0001a0 0c 94 2a bc 3c cb f5 bc 8c eb ed bc 30 0a 60 bb
       -0.010411274 -0.030004136 -0.029042982 -0.003418576
0001b0 a0 d6 1d 3c 90 8f a1 bc 70 c8 d8 3c 00 8a 4a bc
       0.00963369 -0.019721776 0.026462764 -0.012362003
0001c0 80 35 08 bc 78 7d a1 3c 52 7c fb 3c 3a ec a3 3c
       -0.008313537 0.019713148 0.030698929 0.020010103
0001d0 a8 4c 57 bc a0 64 cb 3b 00 97 c4 bc 40 73 c8 3a
       -0.013140835 0.006207064 -0.023997784 0.0015293136
0001e0 bc 64 84 bc 9a bf 8e 3c a0 48 bc bb 18 37 f1 3c
       -0.016161315 0.017425347 -0.0057459623 0.029445216
0001f0 80 ca 7a 3b 7c c9 a4 bc 28 84 87 bc 3c 91 e6 3c
       0.0038267672 -0.020115606 -0.01654251 0.028145425
000200 60 8f 61 3c 96 1c ea 3c f0 32 02 3c 60 5e da bb
       0.013767093 0.028578084 0.007946715 -0.0066640824
000210 30 35 77 bc 00 e2 d2 b9 10 3b cc bc 34 96 94 bc
       -0.0150883645 -0.00040222704 -0.024930507 -0.018138029
000220 6c f4 04 bc e0 02 8b ba 6c d8 0e bc 38 46 b3 3c
       -0.008114915 -0.0010605715 -0.008718591 0.021884069
000230 3a 0c 85 bc 5c 99 8a bc 12 9e 8b bc 4c 07 a3 bc
       -0.016241182 -0.01691883 -0.017043147 -0.01990094
000240 40 58 92 3c ee be c0 bc 30 dc 3c 3c 78 4c a2 bb
       0.017864347 -0.023528542 0.011527106 -0.0049529634
000250 00 f2 13 bb 28 75 a6 bc f8 fe ca 3b b0 72 98 3c
       -0.0022574663 -0.020319536 0.0061949454 0.018609375
000260 de 46 fe bc c2 c1 fc 3c 02 de fb 3c 58 63 75 3c
       -0.031039651 0.03085411 0.03074551 0.014977299
000270 b0 98 16 bb 3c c0 91 bc 40 d3 a9 bb e2 16 e7 3c
       -0.0022979192 -0.01779186 -0.0051826537 0.028209154
000280 90 c1 e1 bb dc 7f c0 3c c8 b3 ea bc 2c c6 3a 3c
       -0.0068895295 0.023498468 -0.02865018 0.011399787
000290 a0 3e 11 3b 0a eb a8 bc 74 27 70 3c f2 a3 b9 3c
       0.0022162572 -0.020619888 0.014657844 0.022661183
0002a0 12 40 87 3c c0 b6 0d 3b 90 b9 27 bb 30 f4 68 3b
       0.016510043 0.002162382 -0.0025592782 0.0035545938
0002b0 38 30 4f 3c f8 98 ce 3b 80 9d d0 3b 9e bb a1 bc
       0.012645774 0.0063048564 0.0063664317 -0.019742783
0002c0 e0 84 b9 bc a0 cd c1 3a 58 e1 f2 bc 6a 31 84 3c
       -0.022646368 0.0014786012 -0.029648468 0.016136844
0002d0 50 7d 2d bb 0c 59 bb bc 3a c3 90 3c 16 93 80 3c
       -0.0026472397 -0.02286961 0.017671216 0.015695136
0002e0 28 fd f5 3b 0c 65 f1 bc 72 bc bd bc 60 f4 13 bc
       0.007506985 -0.029467128 -0.023161147 -0.0090304315
0002f0 d4 f8 0a bc 64 e3 4f 3c e8 d7 0e 3c dc ea 8b 3c
       -0.008482177 0.0126884915 0.008718468 0.017079763
000300 f4 7f 37 bc fa 28 c0 3c f8 93 43 3c a0 06 84 3b
       -0.01119994 0.02345704 0.011937134 0.00402911
000310 d0 07 84 bb da 7e 8e 3c 30 6a f8 3c 14 f8 af 3c
       -0.0040292516 0.017394472 0.030324072 0.021480598
000320 60 33 11 3b e0 3b b7 bc d4 d7 c7 bc 96 61 bc 3c
       0.0022155866 -0.022367418 -0.024394907 0.022995751
000330 6c 0b ae bc 8c 7b 31 bc ca 93 be bc b0 19 a5 bc
       -0.02124568 -0.0108326785 -0.02326383 -0.02015385
000340 0a 07 f4 bc 0c 7a 73 3c dc 5d 0a bc 20 92 f1 3a
       -0.029788513 0.014860641 -0.008445229 0.001843039
000350 6c f2 9b 3c ac 00 aa bc c8 5a da bb 94 f2 75 3c
       0.019036494 -0.020752273 -0.006663654 0.015011448
000360 80 5b c2 3b 7c a2 31 3c dc 37 5d 3c 20 0b b7 3c
       0.005931318 0.010841962 0.013502087 0.022344172
000370 a8 22 dc bc 28 8a f1 3b 20 aa 2a 3b f0 b9 8a bb
       -0.026871994 0.007371206 0.0026041344 -0.0042335913
000380 ee 15 a2 bc a8 ac 48 bc 20 7a 1e 3c 82 29 f5 3c
       -0.019785848 -0.012248196 0.009672672 0.029927019
000390 e0 90 a7 bc 84 78 c8 bc 2c 53 8b bc 2c b8 f3 bc
       -0.020454824 -0.024471529 -0.017007433 -0.029750906
0003a0 e8 21 ac 3c 80 5e 88 3a 24 7e 2a bc e0 68 30 bc
       0.021012262 0.001040414 -0.010406051 -0.010767192
0003b0 68 e3 17 bc 58 73 b9 3c 38 33 8d bb b8 29 3a 3c
       -0.0092705265 0.022638008 -0.0043090843 0.011362486
0003c0 38 c4 c4 3c 0c 90 67 bc 30 9b 1b bc ec b7 c6 bc
       0.024019346 -0.014133465 -0.009497449 -0.024257623
0003d0 02 38 cc bc 04 3a 36 bc a0 2e d7 bc e0 f5 c8 bc
       -0.02492905 -0.01112223 -0.02626735 -0.024531305
0003e0 d8 4c 2b bc 74 eb c9 3c c8 5a a0 3b dc 83 b2 3c
       -0.010455333 0.024648406 0.0048936345 0.021791391
0003f0 70 44 8f 3b e2 ff ab bc 6c a7 2f bc 64 30 9f bc
       0.004372172 -0.020996038 -0.010721069 -0.019432254

model.7.bias f4 [64]
000000 2e dd dc 3c 38 82 c1 3b 58 51 85 bb 7e c6 ef bc
       0.026960935 0.005905416 -0.004068535 -0.029269453
000010 00 b0 a6 3c 38 5f b0 bb e8 d5 57 bc 5a b3 cc 3c
       0.020347595 -0.0053824447 -0.013173558 0.024987865
000020 36 52 84 3c c8 cc d8 3b 80 93 07 bc 90 28 0f 3c
       0.016152482 0.0066162087 -0.008274913 0.008737698
000030 28 52 c7 bc c0 45 1e ba c0 55 92 3a 40 9e fa 3a
       -0.024331167 -0.0006037615 0.0011164472 0.0019120649
000040 b6 72 b6 3c d8 ca fe 3c 56 96 c5 3c 90 64 56 3c
       0.022271495 0.031102583 0.024119537 0.013085499
000050 24 60 da bc da f2 ba 3c 8a 44 e1 3c 58 a0 68 3c
       -0.026657172 0.022820879 0.027498502 0.014198385
000060 12 c3 cf 3c 38 f1 e8 3b 70 e9 31 3c 8a 4b cb bc
       0.025361571 0.0071088336 0.0108588785 -0.024816293
000070 3c 40 3c bc 3c fd 8a bc 18 ca 87 3b dc ca cc bc
       -0.011489924 -0.016966455 0.0041439645 -0.024999075
000080 40 df c8 3c 00 78 0f 39 5c 1b 2b 3c 18 b5 36 3c
       0.024520516 0.00013682246 0.010443535 0.011151575
000090 60 ea f1 ba a0 db ea bb cc 9c 7f 3c 40 c7 d3 ba
       -0.001845669 -0.0071672946 0.015601348 -0.0016157404
0000a0 d0 05 b6 3b d6 38 d4 3c d0 e1 0e 3b 2c bb 20 3c
       0.005554892 0.025906008 0.0021802075 0.00981025
0000b0 3c 52 2c bc 76 23 f9 3c 00 95 19 ba 30 dc 82 3c
       -0.010517653 0.030412417 -0.00058586895 0.015974134
0000c0 9a 81 f7 bc 6a 98 da 3c a6 98 8e bc ca 78 e2 bc
       -0.030213166 0.026684005 -0.017406773 -0.027645487
0000d0 68 3c 84 bc a8 c8 ec bb cc bd be bc d4 d6 c9 3c
       -0.016142085 -0.0072260685 -0.023283862 0.02463857
0000e0 2c 75 03 3c 88 12 f5 3c 16 27 e9 bc 44 86 4a 3c
       0.008023541 0.029916063 -0.02846102 0.012361113
0000f0 6a 56 ae bc a2 2d e1 bc 38 41 0f 3c 40 aa b4 3b
       -0.02128144 -0.02748758 0.008743577 0.0055134594

model.8.weight f4 [10, 64]
000000 60 4b 30 bc 20 fb 97 3d fa da 9f bd 4e 89 b0 3d
       -0.010760158 0.07420945 -0.07805438 0.08619939
000010 80 e5 f2 3d ca d1 d1 bd 64 37 b8 bd 60 c5 f4 3b
       0.1186018 -0.10245092 -0.0899494 0.007469818
000020 28 29 ba 3c d6 16 e5 3d f8 27 b0 bc e4 e9 2b bd
       0.022724703 0.11185996 -0.021503434 -0.041971102
000030 18 e2 bc bd 40 f2 8e 3d 04 69 ef bd 0c 38 b9 3d
       -0.092228115 0.06979799 -0.11689952 0.09043893
000040 cc 67 8f 3d 48 0c dd 3d da cd 80 3d ec 71 90 3d
       0.070022196 0.10793358 0.06289263 0.07052979
000050 98 62 22 3d 20 9c df 3c 00 57 12 3b ec 95 59 3d
       0.039644808 0.027296126 0.0022329688 0.053121492
000060 88 7b 32 3d fc 14 ee bd 50 70 f9 3d 4c 96 5e bd
       0.04357484 -0.11625096 0.12179625 -0.054342553
000070 d4 a0 83 bd ba 53 c2 3d c0 eb 84 3d 00 54 97 3c
       -0.0642716 0.09488626 0.06490278 0.018472672
000080 4a bf b1 bd f8 ee c2 3d a8 b9 d0 3c e4 08 cc bd
       -0.086790636 0.09518236 0.025479153 -0.09962633
000090 c0 c9 72 bb 3e 5d 9f 3d e8 2e c7 3d 80 1b 64 bd
       -0.0037046522 0.077814564 0.097257435 -0.05569029
0000a0 80 25 c6 3b 40 54 b8 bb 68 9d 4a 3d 44 17 d6 3d
       0.006046951 -0.0056252778 0.04946652 0.10453656
0000b0 94 62 8c bd 30 81 08 3c 30 c2 58 3c 6c 9c 6b 3d
       -0.0685474 0.008331582 0.013229892 0.057522222
0000c0 2c ba 7d bd 2a 95 8e bd f4 33 d7 3d 08 c6 dd bd
       -0.061945125 -0.069620445 0.10507956 -0.10828787
0000d0 96 65 d2 3d 42 9a ba bd 28 96 eb bc 14 e5 38 3d
       0.10273282 -0.091114536 -0.028758124 0.04514034
0000e0 f0 7c ac 3c 68 54 ae 3d 70 22 33 bc fe b9 fb 3d
       0.021055669 0.08512193 -0.0109335035 0.122913346
0000f0 9a 18 9c bd e0 7c 68 bc 9e db ce bd 04 6f 3e bd
       -0.0762188 -0.014189929 -0.101004824 -0.04649259
000100 d0 26 58 3c 38 c8 08 3d c6 53 b4 3d d0 3f 69 3c
       0.013192847 0.03339407 0.08805041 0.0142364055
000110 f4 b0 79 bd 82 a5 91 3d 54 c5 67 bd dc 8b 40 bd
       -0.06095977 0.07111646 -0.05658467 -0.04700838
000120 82 6f 82 bd 48 fe c3 bc 10 7c ca bc ce 09 c5 3d
       -0.06368925 -0.023924962 -0.02471736 0.09621011
000130 f4 92 a6 3d 82 10 84 bd 18 94 aa bd bc 4e 90 3d
       0.08133498 -0.06448461 -0.08329028 0.070462674
000140 c8 5d 75 bd 94 df 91 3d 58 57 66 bd 40 ee e9 3b
       -0.05990389 0.07122722 -0.05623564 0.0071389973
000150 08 da c0 bd a0 56 f0 3b e0 53 dd 3c 36 57 9a bd
       -0.09416586 0.0073345453 0.027017534 -0.075361654
000160 6c 4c 04 3d 8a 6f 9f 3d 00 eb 4c 3c 20 a7 5b bc
       0.032299444 0.07784946 0.0125072 -0.013406545
000170 64 f5 26 3d 18 79 68 bd 48 2b 77 3d 8c 99 f9 3d
       0.040761366 -0.05675611 0.06034401 0.1218749
000180 3c 74 70 3d 80 f3 8f bc 80 77 30 3c 28 51 af 3c
       0.0587046 -0.017572165 0.0107706785 0.021401003
000190 50 09 03 bd b0 fd 7d 3c 00 86 7b 3a c8 53 ad 3d
       -0.031991303 0.015502378 0.00095948577 0.08463246
0001a0 f0 80 db bc 74 4b 9c 3d 60 cf ba bc a4 6d 6f 3d
       -0.02679488 0.07631579 -0.022803962 0.05845417
0001b0 c2 8e 8e 3d b6 20 eb bd d8 e7 ca 3d 36 fd aa bd
       0.06960823 -0.114808485 0.09907502 -0.083490774
0001c0 f0 89 62 3d 88 56 8a bc c0 57 51 3b 78 65 8c bd
       0.05530733 -0.016886964 0.0031943172 -0.06855291
0001d0 50 30 18 bd d6 44 88 bd 12 46 d6 3d 44 63 6b bd
       -0.03715545 -0.066537544 0.104625836 -0.057467714
0001e0 14 7d d7 bd d2 7e f6 bd 60 3c e5 3b b6 26 a7 3d
       -0.10521904 -0.12035908 0.0069957227 0.081616804
0001f0 48 7f 8d 3c 48 2c 37 bd 50 76 88 bd 4a 2b 92 3d
       0.017272606 -0.044719964 -0.06663191 0.07137163
000200 a4 26 de 3d b8 6e 41 bd ec 9b aa bd dc b7 53 3d
       0.10847214 -0.04722473 -0.08330521 0.051689014
000210 98 f6 a2 3d 3a 66 eb 3d 18 cb d0 bc cc e0 6e 3d
       0.0795719 0.114941075 -0.025487468 0.05831985
000220 e0 9a 9c 3c 18 72 00 bd 80 60 c2 3b 3e 2c 9b 3d
       0.019116819 -0.03135881 0.005931914 0.07576798
000230 d8 03 c6 3d d8 ee c4 bc 98 ed 5f bd 48 d7 c7 bc
       0.09668702 -0.02403967 -0.054669946 -0.024394646
000240 00 45 c0 3d 3c 80 09 3d 48 b8 4f bd 80 03 dd 3d
       0.09388161 0.03356956 -0.050712854 0.10791683
000250 de 6e fc 3d 9c 6f a5 bd f4 9c 91 bd f0 55 89 3c
       0.12325834 -0.080779284 -0.071100146 0.016764611
000260 90 c9 c3 3c 48 47 c6 3c 62 99 ce 3d c0 cb 1f bc
       0.023899823 0.024203911 0.10087849 -0.009753168
000270 50 58 c7 bc a6 c5 88 3d d6 6b c1 3d e2 12 90 bd
       -0.024334103 0.066783234 0.09444396 -0.070348516
000280 68 b1 8f 3c 30 0f 25 3c a0 05 5a bc 04 50 32 bd
       0.017540649 0.010074422 -0.013307005 -0.04353334
000290 c4 af fb 3d b4 c9 2b 3d 76 c5 9a bd 62 78 ac bd
       0.12289384 0.041940406 -0.07557194 -0.08421399
0002a0 de 52 a8 bd a6 d1 94 3d a6 19 95 bd a8 73 1b 3d
       -0.08218931 0.0726655 -0.07280283 0.037952095
0002b0 90 db c0 3c 2c ec 20 bd 1e 19 b2 3d 30 37 72 bd
       0.023542196 -0.03928773 0.08696197 -0.059134662
0002c0 3e a2 ef 3d fc d7 bd bd 90 dc 97 bc 48 b7 af 3d
       0.11700867 -0.092697114 -0.01853779 0.0857988
0002d0 48 67 71 3d d0 5f 4b 3c 00 ed bb bd 10 c0 d9 3c
       0.058936387 0.01241298 -0.091760635 0.02658084
0002e0 ca 9d f7 3d f0 4a ce 3d 1c 81 9e bd 38 1f c5 3d
       0.12090643 0.10072887 -0.077394694 0.09625095
0002f0 42 2a c6 bd 80 44 97 3c d0 cd 34 bc 5c bd 79 3d
       -0.09676029 0.01846528 -0.011035398 0.060971603
000300 70 a7 22 bc f0 5a 0c 3d 94 ea ef 3d b8 27 90 3d
       -0.0099276155 0.034266412 0.11714664 0.07038826
000310 60 81 5e 3c 42 84 95 3d 98 d7 51 3d e0 dd de 3c
       0.01358065 0.07300617 0.051230997 0.027205408
000320 68 dc bd 3c 00 61 48 bb 58 cf 83 bd a2 b2 8c 3d
       0.023176387 -0.0030575395 -0.06436032 0.06870009
000330 40 56 97 bc 40 d1 b8 bd f4 79 61 3d b8 c6 b3 bd
       -0.018473744 -0.09024286 0.055047944 -0.08778137
000340 80 88 a2 3c 70 58 4e 3c 80 eb 97 3a 5c a2 1e bd
       0.019840479 0.012594327 0.001159057 -0.038729057
000350 50 54 ca bd 66 ad ff 3d c0 ae 88 3c 2a e2 e6 bd
       -0.098793626 0.12484245 0.01668489 -0.11273606
000360 a0 6d 03 bd 38 90 48 3d a2 d6 9d bd cc 86 d8 bd
       -0.03208697 0.048965663 -0.077069536 -0.105725855
000370 66 82 f5 3d 10 60 ff bc d6 9a 98 3d d0 89 24 3c
       0.11987762 -0.031173736 0.074514076 0.010042623
000380 7e c2 cc 3d 80 14 a6 bd 60 ca d2 bd 24 16 4c bd
       0.09998034 -0.08109379 -0.10292506 -0.049825802
000390 10 d1 a0 3c 66 b2 cd 3d 28 d0 f4 bd 10 30 57 3d
       0.019630939 0.100437924 -0.11953765 0.05253607
0003a0 0a 45 a4 bd 88 40 e7 3d 0c 25 dd bd 92 23 ea 3d
       -0.08020981 0.11291605 -0.10798082 0.11432566
0003b0 b8 36 eb 3c 9e 51 9b bd 88 61 ca bd c0 f5 e6 3b
       0.028712615 -0.075839266 -0.09881884 0.0070483387
0003c0 10 c8 50 3d 08 97 aa bc c6 65 fd 3d d4 5b aa 3d
       0.050972044 -0.02082397 0.12372927 0.08318296
0003d0 64 7e eb 3d be 7d e2 bd c6 82 fe 3d fe 74 95 3d
       0.114987165 -0.1105914 0.12427287 0.07297705
0003e0 12 1f d2 bd 48 27 45 3d 82 e2 d3 bd 44 1c a0 bd
       -0.102598324 0.048133165 -0.10345937 -0.07817891
0003f0 fe f1 bf 3d 16 31 df bd b4 83 d7 bd da d9 bb 3d
       0.09372328 -0.10898034 -0.10523167 0.09172411

model.8.bias f4 [10]
000000 be 86 e1 3d 6c 43 e4 3d e0 b1 37 bd 22 7c eb 3d
       0.11012028 0.11145672 -0.04484737 0.11498286
000010 48 10 df 3c 74 74 2e 3d c0 00 99 3b e0 97 1f bc
       0.027229443 0.042591527 0.004669279 -0.0097408
000020 40 ca c7 3c 60 81 e7 bb
       0.024388433 -0.0070649832
